…
            "Downloading data from https://storage.googleapis.com/tensorflow/keras-applications/resnet/resnet50_weights_tf_dim_ordering_tf_kernels_notop.h5\n",
            "94773248/94765736 [==============================] - 0s 0us/step\n",
            "94781440/94765736 [==============================] - 0s 0us/step\n",
            "Model: \"resnet50\"\n",
            "__________________________________________________________________________________________________\n",
            "Layer (type)                    Output Shape         Param #     Connected to                     \n",
            "==================================================================================================\n",
            "input_1 (InputLayer)            [(None, 244, 244, 3) 0                                            \n",
            "__________________________________________________________________________________________________\n",
            "conv1_pad (ZeroPadding2D)       (None, 250, 250, 3)  0           input_1[0][0]                    \n",
            "__________________________________________________________________________________________________\n",
            "conv1_conv (Conv2D)             (None, 122, 122, 64) 9472        conv1_pad[0][0]                  \n",
            "__________________________________________________________________________________________________\n",
            "conv1_bn (BatchNormalization)   (None, 122, 122, 64) 256         conv1_conv[0][0]                 \n",
            "__________________________________________________________________________________________________\n",
            "conv1_relu (Activation)         (None, 122, 122, 64) 0           conv1_bn[0][0]                   \n",
            "__________________________________________________________________________________________________\n",
            "pool1_pad (ZeroPadding2D)       (None, 124, 124, 64) 0           conv1_relu[0][0]                 \n",
            "__________________________________________________________________________________________________\n",
            "pool1_pool (MaxPooling2D)       (None, 61, 61, 64)   0           pool1_pad[0][0]                  \n",
            "__________________________________________________________________________________________________\n",
            "conv2_block1_1_conv (Conv2D)    (None, 61, 61, 64)   4160        pool1_pool[0][0]                 \n",
            "__________________________________________________________________________________________________\n",
            "conv2_block1_1_bn (BatchNormali (None, 61, 61, 64)   256         conv2_block1_1_conv[0][0]        \n",
            "__________________________________________________________________________________________________\n",
            "conv2_block1_1_relu (Activation (None, 61, 61, 64)   0           conv2_block1_1_bn[0][0]          \n",
            "__________________________________________________________________________________________________\n",
            "conv2_block1_2_conv (Conv2D)    (None, 61, 61, 64)   36928       conv2_block1_1_relu[0][0]        \n",
            "__________________________________________________________________________________________________\n",
            "conv2_block1_2_bn (BatchNormali (None, 61, 61, 64)   256         conv2_block1_2_conv[0][0]        \n",
            "__________________________________________________________________________________________________\n",
            "conv2_block1_2_relu (Activation (None, 61, 61, 64)   0           conv2_block1_2_bn[0][0]          \n",
            "__________________________________________________________________________________________________\n",
            "conv2_block1_0_conv (Conv2D)    (None, 61, 61, 256)  16640       pool1_pool[0][0]                 \n",
            "__________________________________________________________________________________________________\n",
            "conv2_block1_3_conv (Conv2D)    (None, 61, 61, 256)  16640       conv2_block1_2_relu[0][0]        \n",
            "__________________________________________________________________________________________________\n",
            "conv2_block1_0_bn (BatchNormali (None, 61, 61, 256)  1024        conv2_block1_0_conv[0][0]        \n",
            "__________________________________________________________________________________________________\n",
            "conv2_block1_3_bn (BatchNormali (None, 61, 61, 256)  1024        conv2_block1_3_conv[0][0]        \n",
            "__________________________________________________________________________________________________\n",
            "conv2_block1_add (Add)          (None, 61, 61, 256)  0           conv2_block1_0_bn[0][0]          \n",
            "                                                                 conv2_block1_3_bn[0][0]          \n",
            "__________________________________________________________________________________________________\n",
            "conv2_block1_out (Activation)   (None, 61, 61, 256)  0           conv2_block1_add[0][0]           \n",
            "__________________________________________________________________________________________________\n",
            "conv2_block2_1_conv (Conv2D)    (None, 61, 61, 64)   16448       conv2_block1_out[0][0]           \n",
            "__________________________________________________________________________________________________\n",
            "conv2_block2_1_bn (BatchNormali (None, 61, 61, 64)   256         conv2_block2_1_conv[0][0]        \n",
            "__________________________________________________________________________________________________\n",
            "conv2_block2_1_relu (Activation (None, 61, 61, 64)   0           conv2_block2_1_bn[0][0]          \n",
            "__________________________________________________________________________________________________\n",
            "conv2_block2_2_conv (Conv2D)    (None, 61, 61, 64)   36928       conv2_block2_1_relu[0][0]        \n",
            "__________________________________________________________________________________________________\n",
            "conv2_block2_2_bn (BatchNormali (None, 61, 61, 64)   256         conv2_block2_2_conv[0][0]        \n",
            "__________________________________________________________________________________________________\n",
            "conv2_block2_2_relu (Activation (None, 61, 61, 64)   0           conv2_block2_2_bn[0][0]          \n",
            "__________________________________________________________________________________________________\n",
            "conv2_block2_3_conv (Conv2D)    (None, 61, 61, 256)  16640       conv2_block2_2_relu[0][0]        \n",
            "__________________________________________________________________________________________________\n",
            "conv2_block2_3_bn (BatchNormali (None, 61, 61, 256)  1024        conv2_block2_3_conv[0][0]        \n",
            "__________________________________________________________________________________________________\n",
            "conv2_block2_add (Add)          (None, 61, 61, 256)  0           conv2_block1_out[0][0]           \n",
            "                                                                 conv2_block2_3_bn[0][0]          \n",
            "__________________________________________________________________________________________________\n",
            "conv2_block2_out (Activation)   (None, 61, 61, 256)  0           conv2_block2_add[0][0]           \n",
            "__________________________________________________________________________________________________\n",
            "conv2_block3_1_conv (Conv2D)    (None, 61, 61, 64)   16448       conv2_block2_out[0][0]           \n",
            "__________________________________________________________________________________________________\n",
            "conv2_block3_1_bn (BatchNormali (None, 61, 61, 64)   256         conv2_block3_1_conv[0][0]        \n",
            "__________________________________________________________________________________________________\n",
            "conv2_block3_1_relu (Activation (None, 61, 61, 64)   0           conv2_block3_1_bn[0][0]          \n",
            "__________________________________________________________________________________________________\n",
            "conv2_block3_2_conv (Conv2D)    (None, 61, 61, 64)   36928       conv2_block3_1_relu[0][0]        \n",
            "__________________________________________________________________________________________________\n",
            "conv2_block3_2_bn (BatchNormali (None, 61, 61, 64)   256         conv2_block3_2_conv[0][0]        \n",
            "__________________________________________________________________________________________________\n",
            "conv2_block3_2_relu (Activation (None, 61, 61, 64)   0           conv2_block3_2_bn[0][0]          \n",
            "__________________________________________________________________________________________________\n",
            "conv2_block3_3_conv (Conv2D)    (None, 61, 61, 256)  16640       conv2_block3_2_relu[0][0]        \n",
            "__________________________________________________________________________________________________\n",
            "conv2_block3_3_bn (BatchNormali (None, 61, 61, 256)  1024        conv2_block3_3_conv[0][0]        \n",
            "__________________________________________________________________________________________________\n",
            "conv2_block3_add (Add)          (None, 61, 61, 256)  0           conv2_block2_out[0][0]           \n",
            "                                                                 conv2_block3_3_bn[0][0]          \n",
            "__________________________________________________________________________________________________\n",
            "conv2_block3_out (Activation)   (None, 61, 61, 256)  0           conv2_block3_add[0][0]           \n",
            "__________________________________________________________________________________________________\n",
            "conv3_block1_1_conv (Conv2D)    (None, 31, 31, 128)  32896       conv2_block3_out[0][0]           \n",
            "__________________________________________________________________________________________________\n",
            "conv3_block1_1_bn (BatchNormali (None, 31, 31, 128)  512         conv3_block1_1_conv[0][0]        \n",
            "__________________________________________________________________________________________________\n",
            "conv3_block1_1_relu (Activation (None, 31, 31, 128)  0           conv3_block1_1_bn[0][0]          \n",
            "__________________________________________________________________________________________________\n",
            "conv3_block1_2_conv (Conv2D)    (None, 31, 31, 128)  147584      conv3_block1_1_relu[0][0]        \n",
            "__________________________________________________________________________________________________\n",
            "conv3_block1_2_bn (BatchNormali (None, 31, 31, 128)  512         conv3_block1_2_conv[0][0]        \n",
            "__________________________________________________________________________________________________\n",
            "conv3_block1_2_relu (Activation (None, 31, 31, 128)  0           conv3_block1_2_bn[0][0]          \n",
            "__________________________________________________________________________________________________\n",
            "conv3_block1_0_conv (Conv2D)    (None, 31, 31, 512)  131584      conv2_block3_out[0][0]           \n",
            "__________________________________________________________________________________________________\n",
            "conv3_block1_3_conv (Conv2D)    (None, 31, 31, 512)  66048       conv3_block1_2_relu[0][0]        \n",
            "__________________________________________________________________________________________________\n",
            "conv3_block1_0_bn (BatchNormali (None, 31, 31, 512)  2048        conv3_block1_0_conv[0][0]        \n",
            "__________________________________________________________________________________________________\n",
            "conv3_block1_3_bn (BatchNormali (None, 31, 31, 512)  2048        conv3_block1_3_conv[0][0]        \n",
            "__________________________________________________________________________________________________\n",
            "conv3_block1_add (Add)          (None, 31, 31, 512)  0           conv3_block1_0_bn[0][0]          \n",
            "                                                                 conv3_block1_3_bn[0][0]          \n",
            "__________________________________________________________________________________________________\n",
            "conv3_block1_out (Activation)   (None, 31, 31, 512)  0           conv3_block1_add[0][0]           \n",
            "__________________________________________________________________________________________________\n",
            "conv3_block2_1_conv (Conv2D)    (None, 31, 31, 128)  65664       conv3_block1_out[0][0]           \n",
            "__________________________________________________________________________________________________\n",
            "conv3_block2_1_bn (BatchNormali (None, 31, 31, 128)  512         conv3_block2_1_conv[0][0]        \n",
            "__________________________________________________________________________________________________\n",
            "conv3_block2_1_relu (Activation (None, 31, 31, 128)  0           conv3_block2_1_bn[0][0]          \n",
            "__________________________________________________________________________________________________\n",
            "conv3_block2_2_conv (Conv2D)    (None, 31, 31, 128)  147584      conv3_block2_1_relu[0][0]        \n",
            "__________________________________________________________________________________________________\n",
            "conv3_block2_2_bn (BatchNormali (None, 31, 31, 128)  512         conv3_block2_2_conv[0][0]        \n",
            "__________________________________________________________________________________________________\n",
            "conv3_block2_2_relu (Activation (None, 31, 31, 128)  0           conv3_block2_2_bn[0][0]          \n",
            "__________________________________________________________________________________________________\n",
            "conv3_block2_3_conv (Conv2D)    (None, 31, 31, 512)  66048       conv3_block2_2_relu[0][0]        \n",
            "__________________________________________________________________________________________________\n",
            "conv3_block2_3_bn (BatchNormali (None, 31, 31, 512)  2048        conv3_block2_3_conv[0][0]        \n",
            "__________________________________________________________________________________________________\n",
            "conv3_block2_add (Add)          (None, 31, 31, 512)  0           conv3_block1_out[0][0]           \n",
            "                                                                 conv3_block2_3_bn[0][0]          \n",
            "__________________________________________________________________________________________________\n",
            "conv3_block2_out (Activation)   (None, 31, 31, 512)  0           conv3_block2_add[0][0]           \n",
            "__________________________________________________________________________________________________\n",
            "conv3_block3_1_conv (Conv2D)    (None, 31, 31, 128)  65664       conv3_block2_out[0][0]           \n",
            "__________________________________________________________________________________________________\n",
            "conv3_block3_1_bn (BatchNormali (None, 31, 31, 128)  512         conv3_block3_1_conv[0][0]        \n",
            "__________________________________________________________________________________________________\n",
            "conv3_block3_1_relu (Activation (None, 31, 31, 128)  0           conv3_block3_1_bn[0][0]          \n",
            "__________________________________________________________________________________________________\n",
            "conv3_block3_2_conv (Conv2D)    (None, 31, 31, 128)  147584      conv3_block3_1_relu[0][0]        \n",
            "__________________________________________________________________________________________________\n",
            "conv3_block3_2_bn (BatchNormali (None, 31, 31, 128)  512         conv3_block3_2_conv[0][0]        \n",
            "__________________________________________________________________________________________________\n",
            "conv3_block3_2_relu (Activation (None, 31, 31, 128)  0           conv3_block3_2_bn[0][0]          \n",
            "__________________________________________________________________________________________________\n",
            "conv3_block3_3_conv (Conv2D)    (None, 31, 31, 512)  66048       conv3_block3_2_relu[0][0]        \n",
            "__________________________________________________________________________________________________\n",
            "conv3_block3_3_bn (BatchNormali (None, 31, 31, 512)  2048        conv3_block3_3_conv[0][0]        \n",
            "__________________________________________________________________________________________________\n",
            "conv3_block3_add (Add)          (None, 31, 31, 512)  0           conv3_block2_out[0][0]           \n",
            "                                                                 conv3_block3_3_bn[0][0]          \n",
            "__________________________________________________________________________________________________\n",
            "conv3_block3_out (Activation)   (None, 31, 31, 512)  0           conv3_block3_add[0][0]           \n",
            "__________________________________________________________________________________________________\n",
            "conv3_block4_1_conv (Conv2D)    (None, 31, 31, 128)  65664       conv3_block3_out[0][0]           \n",
            "__________________________________________________________________________________________________\n",
            "conv3_block4_1_bn (BatchNormali (None, 31, 31, 128)  512         conv3_block4_1_conv[0][0]        \n",
            "__________________________________________________________________________________________________\n",
            "conv3_block4_1_relu (Activation (None, 31, 31, 128)  0           conv3_block4_1_bn[0][0]          \n",
            "__________________________________________________________________________________________________\n",
            "conv3_block4_2_conv (Conv2D)    (None, 31, 31, 128)  147584      conv3_block4_1_relu[0][0]        \n",
            "__________________________________________________________________________________________________\n",
            "conv3_block4_2_bn (BatchNormali (None, 31, 31, 128)  512         conv3_block4_2_conv[0][0]        \n",
            "__________________________________________________________________________________________________\n",
            "conv3_block4_2_relu (Activation (None, 31, 31, 128)  0           conv3_block4_2_bn[0][0]          \n",
            "__________________________________________________________________________________________________\n",
            "conv3_block4_3_conv (Conv2D)    (None, 31, 31, 512)  66048       conv3_block4_2_relu[0][0]        \n",
            "__________________________________________________________________________________________________\n",
            "conv3_block4_3_bn (BatchNormali (None, 31, 31, 512)  2048        conv3_block4_3_conv[0][0]        \n",
            "__________________________________________________________________________________________________\n",
            "conv3_block4_add (Add)          (None, 31, 31, 512)  0           conv3_block3_out[0][0]           \n",
            "                                                                 conv3_block4_3_bn[0][0]          \n",
            "__________________________________________________________________________________________________\n",
            "conv3_block4_out (Activation)   (None, 31, 31, 512)  0           conv3_block4_add[0][0]           \n",
            "__________________________________________________________________________________________________\n",
            "conv4_block1_1_conv (Conv2D)    (None, 16, 16, 256)  131328      conv3_block4_out[0][0]           \n",
            "__________________________________________________________________________________________________\n",
            "conv4_block1_1_bn (BatchNormali (None, 16, 16, 256)  1024        conv4_block1_1_conv[0][0]        \n",
            "__________________________________________________________________________________________________\n",
            "conv4_block1_1_relu (Activation (None, 16, 16, 256)  0           conv4_block1_1_bn[0][0]          \n",
            "__________________________________________________________________________________________________\n",
            "conv4_block1_2_conv (Conv2D)    (None, 16, 16, 256)  590080      conv4_block1_1_relu[0][0]        \n",
            "__________________________________________________________________________________________________\n",
            "conv4_block1_2_bn (BatchNormali (None, 16, 16, 256)  1024        conv4_block1_2_conv[0][0]        \n",
            "__________________________________________________________________________________________________\n",
            "conv4_block1_2_relu (Activation (None, 16, 16, 256)  0           conv4_block1_2_bn[0][0]          \n",
            "__________________________________________________________________________________________________\n",
            "conv4_block1_0_conv (Conv2D)    (None, 16, 16, 1024) 525312      conv3_block4_out[0][0]           \n",
            "__________________________________________________________________________________________________\n",
            "conv4_block1_3_conv (Conv2D)    (None, 16, 16, 1024) 263168      conv4_block1_2_relu[0][0]        \n",
            "__________________________________________________________________________________________________\n",
            "conv4_block1_0_bn (BatchNormali (None, 16, 16, 1024) 4096        conv4_block1_0_conv[0][0]        \n",
            "__________________________________________________________________________________________________\n",
            "conv4_block1_3_bn (BatchNormali (None, 16, 16, 1024) 4096        conv4_block1_3_conv[0][0]        \n",
            "__________________________________________________________________________________________________\n",
            "conv4_block1_add (Add)          (None, 16, 16, 1024) 0           conv4_block1_0_bn[0][0]          \n",
            "                                                                 conv4_block1_3_bn[0][0]          \n",
            "__________________________________________________________________________________________________\n",
            "conv4_block1_out (Activation)   (None, 16, 16, 1024) 0           conv4_block1_add[0][0]           \n",
            "__________________________________________________________________________________________________\n",
            "conv4_block2_1_conv (Conv2D)    (None, 16, 16, 256)  262400      conv4_block1_out[0][0]           \n",
            "__________________________________________________________________________________________________\n",
            "conv4_block2_1_bn (BatchNormali (None, 16, 16, 256)  1024        conv4_block2_1_conv[0][0]        \n",
            "__________________________________________________________________________________________________\n",
            "conv4_block2_1_relu (Activation (None, 16, 16, 256)  0           conv4_block2_1_bn[0][0]          \n",
            "__________________________________________________________________________________________________\n",
            "conv4_block2_2_conv (Conv2D)    (None, 16, 16, 256)  590080      conv4_block2_1_relu[0][0]        \n",
            "__________________________________________________________________________________________________\n",
            "conv4_block2_2_bn (BatchNormali (None, 16, 16, 256)  1024        conv4_block2_2_conv[0][0]        \n",
            "__________________________________________________________________________________________________\n",
            "conv4_block2_2_relu (Activation (None, 16, 16, 256)  0           conv4_block2_2_bn[0][0]          \n",
            "__________________________________________________________________________________________________\n",
            "conv4_block2_3_conv (Conv2D)    (None, 16, 16, 1024) 263168      conv4_block2_2_relu[0][0]        \n",
            "__________________________________________________________________________________________________\n",
            "conv4_block2_3_bn (BatchNormali (None, 16, 16, 1024) 4096        conv4_block2_3_conv[0][0]        \n",
            "__________________________________________________________________________________________________\n",
            "conv4_block2_add (Add)          (None, 16, 16, 1024) 0           conv4_block1_out[0][0]           \n",
            "                                                                 conv4_block2_3_bn[0][0]          \n",
            "__________________________________________________________________________________________________\n",
            "conv4_block2_out (Activation)   (None, 16, 16, 1024) 0           conv4_block2_add[0][0]           \n",
            "__________________________________________________________________________________________________\n",
            "conv4_block3_1_conv (Conv2D)    (None, 16, 16, 256)  262400      conv4_block2_out[0][0]           \n",
            "__________________________________________________________________________________________________\n",
            "conv4_block3_1_bn (BatchNormali (None, 16, 16, 256)  1024        conv4_block3_1_conv[0][0]        \n",
            "__________________________________________________________________________________________________\n",
            "conv4_block3_1_relu (Activation (None, 16, 16, 256)  0           conv4_block3_1_bn[0][0]          \n",
            "__________________________________________________________________________________________________\n",
            "conv4_block3_2_conv (Conv2D)    (None, 16, 16, 256)  590080      conv4_block3_1_relu[0][0]        \n",
            "__________________________________________________________________________________________________\n",
            "conv4_block3_2_bn (BatchNormali (None, 16, 16, 256)  1024        conv4_block3_2_conv[0][0]        \n",
            "__________________________________________________________________________________________________\n",
            "conv4_block3_2_relu (Activation (None, 16, 16, 256)  0           conv4_block3_2_bn[0][0]          \n",
            "__________________________________________________________________________________________________\n",
            "conv4_block3_3_conv (Conv2D)    (None, 16, 16, 1024) 263168      conv4_block3_2_relu[0][0]        \n",
            "__________________________________________________________________________________________________\n",
            "conv4_block3_3_bn (BatchNormali (None, 16, 16, 1024) 4096        conv4_block3_3_conv[0][0]        \n",
            "__________________________________________________________________________________________________\n",
            "conv4_block3_add (Add)          (None, 16, 16, 1024) 0           conv4_block2_out[0][0]           \n",
            "                                                                 conv4_block3_3_bn[0][0]          \n",
            "__________________________________________________________________________________________________\n",
            "conv4_block3_out (Activation)   (None, 16, 16, 1024) 0           conv4_block3_add[0][0]           \n",
            "__________________________________________________________________________________________________\n",
            "conv4_block4_1_conv (Conv2D)    (None, 16, 16, 256)  262400      conv4_block3_out[0][0]           \n",
            "__________________________________________________________________________________________________\n",
            "conv4_block4_1_bn (BatchNormali (None, 16, 16, 256)  1024        conv4_block4_1_conv[0][0]        \n",
            "__________________________________________________________________________________________________\n",
            "conv4_block4_1_relu (Activation (None, 16, 16, 256)  0           conv4_block4_1_bn[0][0]          \n",
            "__________________________________________________________________________________________________\n",
            "conv4_block4_2_conv (Conv2D)    (None, 16, 16, 256)  590080      conv4_block4_1_relu[0][0]        \n",
            "__________________________________________________________________________________________________\n",
            "conv4_block4_2_bn (BatchNormali (None, 16, 16, 256)  1024        conv4_block4_2_conv[0][0]        \n",
            "__________________________________________________________________________________________________\n",
            "conv4_block4_2_relu (Activation (None, 16, 16, 256)  0           conv4_block4_2_bn[0][0]          \n",
            "__________________________________________________________________________________________________\n",
            "conv4_block4_3_conv (Conv2D)    (None, 16, 16, 1024) 263168      conv4_block4_2_relu[0][0]        \n",
            "__________________________________________________________________________________________________\n",
            "conv4_block4_3_bn (BatchNormali (None, 16, 16, 1024) 4096        conv4_block4_3_conv[0][0]        \n",
            "__________________________________________________________________________________________________\n",
            "conv4_block4_add (Add)          (None, 16, 16, 1024) 0           conv4_block3_out[0][0]           \n",
            "                                                                 conv4_block4_3_bn[0][0]          \n",
            "__________________________________________________________________________________________________\n",
            "conv4_block4_out (Activation)   (None, 16, 16, 1024) 0           conv4_block4_add[0][0]           \n",
            "__________________________________________________________________________________________________\n",
            "conv4_block5_1_conv (Conv2D)    (None, 16, 16, 256)  262400      conv4_block4_out[0][0]           \n",
            "__________________________________________________________________________________________________\n",
            "conv4_block5_1_bn (BatchNormali (None, 16, 16, 256)  1024        conv4_block5_1_conv[0][0]        \n",
            "__________________________________________________________________________________________________\n",
            "conv4_block5_1_relu (Activation (None, 16, 16, 256)  0           conv4_block5_1_bn[0][0]          \n",
            "__________________________________________________________________________________________________\n",
            "conv4_block5_2_conv (Conv2D)    (None, 16, 16, 256)  590080      conv4_block5_1_relu[0][0]        \n",
            "__________________________________________________________________________________________________\n",
            "conv4_block5_2_bn (BatchNormali (None, 16, 16, 256)  1024        conv4_block5_2_conv[0][0]        \n",
            "__________________________________________________________________________________________________\n",
            "conv4_block5_2_relu (Activation (None, 16, 16, 256)  0           conv4_block5_2_bn[0][0]          \n",
            "__________________________________________________________________________________________________\n",
            "conv4_block5_3_conv (Conv2D)    (None, 16, 16, 1024) 263168      conv4_block5_2_relu[0][0]        \n",
            "__________________________________________________________________________________________________\n",
            "conv4_block5_3_bn (BatchNormali (None, 16, 16, 1024) 4096        conv4_block5_3_conv[0][0]        \n",
            "__________________________________________________________________________________________________\n",
            "conv4_block5_add (Add)          (None, 16, 16, 1024) 0           conv4_block4_out[0][0]           \n",
            "                                                                 conv4_block5_3_bn[0][0]          \n",
            "__________________________________________________________________________________________________\n",
            "conv4_block5_out (Activation)   (None, 16, 16, 1024) 0           conv4_block5_add[0][0]           \n",
            "__________________________________________________________________________________________________\n",
            "conv4_block6_1_conv (Conv2D)    (None, 16, 16, 256)  262400      conv4_block5_out[0][0]           \n",
            "__________________________________________________________________________________________________\n",
            "conv4_block6_1_bn (BatchNormali (None, 16, 16, 256)  1024        conv4_block6_1_conv[0][0]        \n",
            "__________________________________________________________________________________________________\n",
            "conv4_block6_1_relu (Activation (None, 16, 16, 256)  0           conv4_block6_1_bn[0][0]          \n",
            "__________________________________________________________________________________________________\n",
            "conv4_block6_2_conv (Conv2D)    (None, 16, 16, 256)  590080      conv4_block6_1_relu[0][0]        \n",
            "__________________________________________________________________________________________________\n",
            "conv4_block6_2_bn (BatchNormali (None, 16, 16, 256)  1024        conv4_block6_2_conv[0][0]        \n",
            "__________________________________________________________________________________________________\n",
            "conv4_block6_2_relu (Activation (None, 16, 16, 256)  0           conv4_block6_2_bn[0][0]          \n",
            "__________________________________________________________________________________________________\n",
            "conv4_block6_3_conv (Conv2D)    (None, 16, 16, 1024) 263168      conv4_block6_2_relu[0][0]        \n",
            "__________________________________________________________________________________________________\n",
            "conv4_block6_3_bn (BatchNormali (None, 16, 16, 1024) 4096        conv4_block6_3_conv[0][0]        \n",
            "__________________________________________________________________________________________________\n",
            "conv4_block6_add (Add)          (None, 16, 16, 1024) 0           conv4_block5_out[0][0]           \n",
            "                                                                 conv4_block6_3_bn[0][0]          \n",
            "__________________________________________________________________________________________________\n",
            "conv4_block6_out (Activation)   (None, 16, 16, 1024) 0           conv4_block6_add[0][0]           \n",
            "__________________________________________________________________________________________________\n",
            "conv5_block1_1_conv (Conv2D)    (None, 8, 8, 512)    524800      conv4_block6_out[0][0]           \n",
            "__________________________________________________________________________________________________\n",
            "conv5_block1_1_bn (BatchNormali (None, 8, 8, 512)    2048        conv5_block1_1_conv[0][0]        \n",
            "__________________________________________________________________________________________________\n",
            "conv5_block1_1_relu (Activation (None, 8, 8, 512)    0           conv5_block1_1_bn[0][0]          \n",
            "__________________________________________________________________________________________________\n",
            "conv5_block1_2_conv (Conv2D)    (None, 8, 8, 512)    2359808     conv5_block1_1_relu[0][0]        \n",
            "__________________________________________________________________________________________________\n",
            "conv5_block1_2_bn (BatchNormali (None, 8, 8, 512)    2048        conv5_block1_2_conv[0][0]        \n",
            "__________________________________________________________________________________________________\n",
            "conv5_block1_2_relu (Activation (None, 8, 8, 512)    0           conv5_block1_2_bn[0][0]          \n",
            "__________________________________________________________________________________________________\n",
            "conv5_block1_0_conv (Conv2D)    (None, 8, 8, 2048)   2099200     conv4_block6_out[0][0]           \n",
            "__________________________________________________________________________________________________\n",
            "conv5_block1_3_conv (Conv2D)    (None, 8, 8, 2048)   1050624     conv5_block1_2_relu[0][0]        \n",
            "__________________________________________________________________________________________________\n",
            "conv5_block1_0_bn (BatchNormali (None, 8, 8, 2048)   8192        conv5_block1_0_conv[0][0]        \n",
            "__________________________________________________________________________________________________\n",
            "conv5_block1_3_bn (BatchNormali (None, 8, 8, 2048)   8192        conv5_block1_3_conv[0][0]        \n",
            "__________________________________________________________________________________________________\n",
            "conv5_block1_add (Add)          (None, 8, 8, 2048)   0           conv5_block1_0_bn[0][0]          \n",
            "                                                                 conv5_block1_3_bn[0][0]          \n",
            "__________________________________________________________________________________________________\n",
            "conv5_block1_out (Activation)   (None, 8, 8, 2048)   0           conv5_block1_add[0][0]           \n",
            "__________________________________________________________________________________________________\n",
            "conv5_block2_1_conv (Conv2D)    (None, 8, 8, 512)    1049088     conv5_block1_out[0][0]           \n",
            "__________________________________________________________________________________________________\n",
            "conv5_block2_1_bn (BatchNormali (None, 8, 8, 512)    2048        conv5_block2_1_conv[0][0]        \n",
            "__________________________________________________________________________________________________\n",
            "conv5_block2_1_relu (Activation (None, 8, 8, 512)    0           conv5_block2_1_bn[0][0]          \n",
            "__________________________________________________________________________________________________\n",
            "conv5_block2_2_conv (Conv2D)    (None, 8, 8, 512)    2359808     conv5_block2_1_relu[0][0]        \n",
            "__________________________________________________________________________________________________\n",
            "conv5_block2_2_bn (BatchNormali (None, 8, 8, 512)    2048        conv5_block2_2_conv[0][0]        \n",
            "__________________________________________________________________________________________________\n",
            "conv5_block2_2_relu (Activation (None, 8, 8, 512)    0           conv5_block2_2_bn[0][0]          \n",
            "__________________________________________________________________________________________________\n",
            "conv5_block2_3_conv (Conv2D)    (None, 8, 8, 2048)   1050624     conv5_block2_2_relu[0][0]        \n",
            "__________________________________________________________________________________________________\n",
            "conv5_block2_3_bn (BatchNormali (None, 8, 8, 2048)   8192        conv5_block2_3_conv[0][0]        \n",
            "__________________________________________________________________________________________________\n",
            "conv5_block2_add (Add)          (None, 8, 8, 2048)   0           conv5_block1_out[0][0]           \n",
            "                                                                 conv5_block2_3_bn[0][0]          \n",
            "__________________________________________________________________________________________________\n",
            "conv5_block2_out (Activation)   (None, 8, 8, 2048)   0           conv5_block2_add[0][0]           \n",
            "__________________________________________________________________________________________________\n",
            "conv5_block3_1_conv (Conv2D)    (None, 8, 8, 512)    1049088     conv5_block2_out[0][0]           \n",
            "__________________________________________________________________________________________________\n",
            "conv5_block3_1_bn (BatchNormali (None, 8, 8, 512)    2048        conv5_block3_1_conv[0][0]        \n",
            "__________________________________________________________________________________________________\n",
            "conv5_block3_1_relu (Activation (None, 8, 8, 512)    0           conv5_block3_1_bn[0][0]          \n",
            "__________________________________________________________________________________________________\n",
            "conv5_block3_2_conv (Conv2D)    (None, 8, 8, 512)    2359808     conv5_block3_1_relu[0][0]        \n",
            "__________________________________________________________________________________________________\n",
            "conv5_block3_2_bn (BatchNormali (None, 8, 8, 512)    2048        conv5_block3_2_conv[0][0]        \n",
            "__________________________________________________________________________________________________\n",
            "conv5_block3_2_relu (Activation (None, 8, 8, 512)    0           conv5_block3_2_bn[0][0]          \n",
            "__________________________________________________________________________________________________\n",
            "conv5_block3_3_conv (Conv2D)    (None, 8, 8, 2048)   1050624     conv5_block3_2_relu[0][0]        \n",
            "__________________________________________________________________________________________________\n",
            "conv5_block3_3_bn (BatchNormali (None, 8, 8, 2048)   8192        conv5_block3_3_conv[0][0]        \n",
            "__________________________________________________________________________________________________\n",
            "conv5_block3_add (Add)          (None, 8, 8, 2048)   0           conv5_block2_out[0][0]           \n",
            "                                                                 conv5_block3_3_bn[0][0]          \n",
            "__________________________________________________________________________________________________\n",
            "conv5_block3_out (Activation)   (None, 8, 8, 2048)   0           conv5_block3_add[0][0]           \n",
            "==================================================================================================\n",
            "Total params: 23,587,712\n",
            "Trainable params: 0\n",
            "Non-trainable params: 23,587,712\n",
            "__________________________________________________________________________________________________\n",
…
